…
#   - Example: argmax([0.05, 0.02, 0.78, 0.01, ..., 0.10]) = 2

model.add(Dense(units=10, activation='softmax'))

# Parameters in this layer:
# - Weights: 64 × 10 = 640
# - Biases: 10
# - Total: 650 parameters

# Output shape: (batch_size, 10) - probability distribution

# PRINT MODEL SUMMARY
print("\nModel Architecture:")
print("-" * 70)
model.summary()

# Expected output:
# ================================================================
# Layer (type)                 Output Shape              Param #   
# ================================================================
# dense (Dense)                (None, 128)               100480    
# dropout (Dropout)            (None, 128)               0         
# dense_1 (Dense)              (None, 64)                8256      
# dropout_1 (Dropout)          (None, 64)                0         
# dense_2 (Dense)              (None, 10)                650       
# ================================================================
# Total params: 109,386
# Trainable params: 109,386

# ============================================================================
# STEP 5: COMPILE MODEL
# ============================================================================

print("\n" + "="*70)
print("STEP 4: COMPILING MODEL")
print("="*70)

# DEFINE OPTIMIZER: SGD with Momentum
…
